…
., 1., 0., 0., 0., 0., 0., 0., 0.])]
20/07/14 16:02:10 818 [INFO,parse_data:55] parsing data from ./Greed_batch/Greed_batch2.txt...
20/07/14 16:02:17 050 [INFO,parse_data:106] parse finish. got 9949 datas
20/07/14 16:02:17 050 [INFO,parse_data:55] parsing data from ./Greed_batch/Greed_batch3.txt...
20/07/14 16:02:23 150 [INFO,parse_data:106] parse finish. got 9970 datas
20/07/14 16:02:23 151 [INFO,parse_data:55] parsing data from ./Greed_batch/Greed_batch1.txt...
20/07/14 16:02:23 916 [INFO,parse_data:106] parse finish. got 1255 datas
20/07/14 16:02:23 919 [INFO,train_last:130] NN_Last(
  (fc1): Linear(in_features=324, out_features=256, bias=True)
  (fc2): Linear(in_features=256, out_features=128, bias=True)
  (fc4): Linear(in_features=128, out_features=64, bias=True)
  (fc5): Linear(in_features=64, out_features=64, bias=True)
  (fc6): Linear(in_features=64, out_features=52, bias=True)
) 131892
20/07/14 16:02:45 401 [INFO,parse_data:54] parsing data from ./Greed_batch/Greed_batch2.txt...
20/07/14 16:02:51 688 [INFO,parse_data:105] parse finish. got 9949 datas
20/07/14 16:02:51 688 [INFO,parse_data:54] parsing data from ./Greed_batch/Greed_batch3.txt...
20/07/14 16:02:57 867 [INFO,parse_data:105] parse finish. got 9970 datas
20/07/14 16:02:57 867 [INFO,parse_data:54] parsing data from ./Greed_batch/Greed_batch1.txt...
20/07/14 16:02:58 635 [INFO,parse_data:105] parse finish. got 1255 datas
20/07/14 16:02:58 637 [INFO,train_last:129] NN_Last(
  (fc1): Linear(in_features=324, out_features=256, bias=True)
  (fc2): Linear(in_features=256, out_features=128, bias=True)
  (fc3): Linear(in_features=128, out_features=64, bias=True)
  (fc4): Linear(in_features=64, out_features=64, bias=True)
  (fc5): Linear(in_features=64, out_features=52, bias=True)
) 131892
20/07/14 16:02:58 792 [INFO,train_last:134] random init: 3.948675 0.254113
20/07/14 16:02:58 792 [INFO,train_last:135] epoch num: train_loss test_loss test_correct_ratio
20/07/14 16:02:59 386 [INFO,train_last:155]   0: 3.802433 3.479762 0.595064
20/07/14 16:03:21 383 [INFO,train_last:155]  50: 0.346773 0.393245 0.883912
20/07/14 16:03:40 795 [INFO,train_last:155] 100: 0.025213 0.399479 0.981718
…
20/07/14 16:09:54 812 [INFO,train_last:155] 850: 0.004518 0.533410 0.981718
20/07/14 16:10:21 193 [INFO,parse_data:54] parsing data from ./Greed_batch/Greed_batch2.txt...
20/07/14 16:10:27 409 [INFO,parse_data:105] parse finish. got 9949 datas
20/07/14 16:10:27 409 [INFO,parse_data:54] parsing data from ./Greed_batch/Greed_batch3.txt...
20/07/14 16:10:33 620 [INFO,parse_data:105] parse finish. got 9970 datas
20/07/14 16:10:33 620 [INFO,parse_data:54] parsing data from ./Greed_batch/Greed_batch1.txt...
20/07/14 16:10:34 407 [INFO,parse_data:105] parse finish. got 1255 datas
20/07/14 16:10:34 408 [INFO,train_last:129] NN_Last(
  (fc1): Linear(in_features=324, out_features=128, bias=True)
  (fc2): Linear(in_features=128, out_features=128, bias=True)
  (fc3): Linear(in_features=128, out_features=64, bias=True)
  (fc4): Linear(in_features=64, out_features=64, bias=True)
  (fc5): Linear(in_features=64, out_features=52, bias=True)
) 73908
20/07/14 16:10:34 541 [INFO,train_last:134] random init: 3.974639 0.285192
20/07/14 16:10:34 541 [INFO,train_last:135] epoch num: train_loss test_loss test_correct_ratio
20/07/14 16:10:34 992 [INFO,train_last:155]   0: 3.871005 3.713939 0.542048
20/07/14 16:10:52 594 [INFO,train_last:155]  50: 0.424856 0.395758 0.871115
20/07/14 16:11:10 041 [INFO,train_last:155] 100: 0.060366 0.255583 0.969835
…
20/07/14 16:13:17 987 [INFO,train_last:155] 450: 0.006760 0.442655 0.980804
20/07/14 16:14:02 797 [INFO,parse_data:54] parsing data from ./Greed_batch/Greed_batch2.txt...
20/07/14 16:14:08 958 [INFO,parse_data:105] parse finish. got 9949 datas
20/07/14 16:14:08 959 [INFO,parse_data:54] parsing data from ./Greed_batch/Greed_batch3.txt...
20/07/14 16:14:15 106 [INFO,parse_data:105] parse finish. got 9970 datas
20/07/14 16:14:15 106 [INFO,parse_data:54] parsing data from ./Greed_batch/Greed_batch1.txt...
20/07/14 16:14:15 878 [INFO,parse_data:105] parse finish. got 1255 datas
20/07/14 16:14:15 880 [INFO,train_last:129] NN_Last(
  (fc1): Linear(in_features=324, out_features=192, bias=True)
  (fc2): Linear(in_features=192, out_features=128, bias=True)
  (fc3): Linear(in_features=128, out_features=64, bias=True)
  (fc4): Linear(in_features=64, out_features=64, bias=True)
  (fc5): Linear(in_features=64, out_features=52, bias=True)
) 102900
20/07/14 16:14:16 023 [INFO,train_last:134] random init: 3.922882 0.300731
20/07/14 16:14:16 024 [INFO,train_last:135] epoch num: train_loss test_loss test_correct_ratio
20/07/14 16:14:16 518 [INFO,train_last:155]   0: 3.778242 3.450075 0.549360
20/07/14 16:14:36 059 [INFO,train_last:155]  50: 0.252212 0.306237 0.914077
20/07/14 16:14:55 255 [INFO,train_last:155] 100: 0.019746 0.301280 0.983547
…
20/07/14 16:21:50 708 [INFO,train:178] 550: 0.004874 0.367929 0.982633
20/07/14 16:22:09 288 [INFO,parse_data:77] parsing data from ./Greed_batch/Greed_batch2.txt...
20/07/14 16:22:15 466 [INFO,parse_data:128] parse finish. got 9949 datas
20/07/14 16:22:15 466 [INFO,parse_data:77] parsing data from ./Greed_batch/Greed_batch3.txt...
20/07/14 16:22:21 930 [INFO,parse_data:128] parse finish. got 9970 datas
20/07/14 16:22:21 930 [INFO,parse_data:77] parsing data from ./Greed_batch/Greed_batch1.txt...
20/07/14 16:22:22 701 [INFO,parse_data:128] parse finish. got 1255 datas
20/07/14 16:22:22 704 [INFO,train:152] NN_Last(
  (fc1): Linear(in_features=324, out_features=256, bias=True)
  (fc2): Linear(in_features=256, out_features=128, bias=True)
  (fc3): Linear(in_features=128, out_features=64, bias=True)
  (fc4): Linear(in_features=64, out_features=64, bias=True)
  (fc5): Linear(in_features=64, out_features=52, bias=True)
) 131892
20/07/14 16:22:22 857 [INFO,train:157] random init: 3.930558 0.363803
20/07/14 16:22:22 857 [INFO,train:158] epoch num: train_loss test_loss test_correct_ratio
20/07/14 16:22:23 410 [INFO,train:178]   0: 3.795212 3.526012 0.496344
20/07/14 16:22:45 735 [INFO,train:178]  50: 0.278686 0.287678 0.924132
20/07/14 16:23:06 213 [INFO,train:178] 100: 0.084069 0.295819 0.974406
…
 [tensor([0., 0., 0., 1.]), tensor([0., 0., 0., 0.]), tensor([1., 0., 0., 0.]), tensor([0., 0., 0., 1.])]
20/07/14 16:38:45 764 [INFO,parse_data:77] parsing data from ./Greed_batch/Greed_batch2.txt...
20/07/14 16:38:52 334 [INFO,parse_data:135] parse finish. got 9949 datas
20/07/14 16:38:52 334 [INFO,parse_data:77] parsing data from ./Greed_batch/Greed_batch3.txt...
20/07/14 16:38:58 803 [INFO,parse_data:135] parse finish. got 9970 datas
20/07/14 16:38:58 803 [INFO,parse_data:77] parsing data from ./Greed_batch/Greed_batch1.txt...
20/07/14 16:38:59 606 [INFO,parse_data:135] parse finish. got 1255 datas
20/07/14 16:38:59 609 [INFO,train:159] NN_Last(
  (fc1): Linear(in_features=324, out_features=256, bias=True)
  (fc2): Linear(in_features=256, out_features=128, bias=True)
  (fc3): Linear(in_features=128, out_features=64, bias=True)
  (fc4): Linear(in_features=64, out_features=64, bias=True)
  (fc5): Linear(in_features=64, out_features=52, bias=True)
) 131892
20/07/14 16:40:10 496 [INFO,parse_data:77] parsing data from ./Greed_batch/Greed_batch2.txt...
20/07/14 16:40:16 799 [INFO,parse_data:135] parse finish. got 9949 datas
20/07/14 16:40:16 799 [INFO,parse_data:77] parsing data from ./Greed_batch/Greed_batch3.txt...
20/07/14 16:40:23 036 [INFO,parse_data:135] parse finish. got 9970 datas
20/07/14 16:40:23 037 [INFO,parse_data:77] parsing data from ./Greed_batch/Greed_batch1.txt...
20/07/14 16:40:23 820 [INFO,parse_data:135] parse finish. got 1255 datas
20/07/14 16:40:23 822 [INFO,train:159] NN_Last(
  (fc1): Linear(in_features=340, out_features=256, bias=True)
  (fc2): Linear(in_features=256, out_features=128, bias=True)
  (fc3): Linear(in_features=128, out_features=64, bias=True)
  (fc4): Linear(in_features=64, out_features=64, bias=True)
  (fc5): Linear(in_features=64, out_features=52, bias=True)
) 135988
20/07/14 16:40:23 975 [INFO,train:164] random init: 3.958065 0.257770
20/07/14 16:40:23 976 [INFO,train:165] epoch num: train_loss test_loss test_correct_ratio
20/07/14 16:40:24 535 [INFO,train:185]   0: 3.833159 3.623502 0.505484
20/07/14 16:40:47 903 [INFO,train:185]  50: 0.352925 0.350188 0.894881
20/07/14 16:41:10 983 [INFO,train:185] 100: 0.035429 0.328262 0.978062
…
