…
., 1., 0., 0., 0., 0., 0., 0., 0.])]
20/07/14 16:02:10 818 [INFO,parse_data:55] parsing data from ./Greed_batch/Greed_batch2.txt...
20/07/14 16:02:17 050 [INFO,parse_data:106] parse finish. got 9949 datas
20/07/14 16:02:17 050 [INFO,parse_data:55] parsing data from ./Greed_batch/Greed_batch3.txt...
20/07/14 16:02:23 150 [INFO,parse_data:106] parse finish. got 9970 datas
20/07/14 16:02:23 151 [INFO,parse_data:55] parsing data from ./Greed_batch/Greed_batch1.txt...
20/07/14 16:02:23 916 [INFO,parse_data:106] parse finish. got 1255 datas
20/07/14 16:02:23 919 [INFO,train_last:130] NN_Last(
  (fc1): Linear(in_features=324, out_features=256, bias=True)
  (fc2): Linear(in_features=256, out_features=128, bias=True)
  (fc4): Linear(in_features=128, out_features=64, bias=True)
  (fc5): Linear(in_features=64, out_features=64, bias=True)
  (fc6): Linear(in_features=64, out_features=52, bias=True)
) 131892
20/07/14 16:02:45 401 [INFO,parse_data:54] parsing data from ./Greed_batch/Greed_batch2.txt...
20/07/14 16:02:51 688 [INFO,parse_data:105] parse finish. got 9949 datas
20/07/14 16:02:51 688 [INFO,parse_data:54] parsing data from ./Greed_batch/Greed_batch3.txt...
20/07/14 16:02:57 867 [INFO,parse_data:105] parse finish. got 9970 datas
20/07/14 16:02:57 867 [INFO,parse_data:54] parsing data from ./Greed_batch/Greed_batch1.txt...
20/07/14 16:02:58 635 [INFO,parse_data:105] parse finish. got 1255 datas
20/07/14 16:02:58 637 [INFO,train_last:129] NN_Last(
  (fc1): Linear(in_features=324, out_features=256, bias=True)
  (fc2): Linear(in_features=256, out_features=128, bias=True)
  (fc3): Linear(in_features=128, out_features=64, bias=True)
  (fc4): Linear(in_features=64, out_features=64, bias=True)
  (fc5): Linear(in_features=64, out_features=52, bias=True)
) 131892
20/07/14 16:02:58 792 [INFO,train_last:134] random init: 3.948675 0.254113
20/07/14 16:02:58 792 [INFO,train_last:135] epoch num: train_loss test_loss test_correct_ratio
20/07/14 16:02:59 386 [INFO,train_last:155]   0: 3.802433 3.479762 0.595064
20/07/14 16:03:21 383 [INFO,train_last:155]  50: 0.346773 0.393245 0.883912
20/07/14 16:03:40 795 [INFO,train_last:155] 100: 0.025213 0.399479 0.981718
…
20/07/14 16:09:54 812 [INFO,train_last:155] 850: 0.004518 0.533410 0.981718
20/07/14 16:10:21 193 [INFO,parse_data:54] parsing data from ./Greed_batch/Greed_batch2.txt...
20/07/14 16:10:27 409 [INFO,parse_data:105] parse finish. got 9949 datas
20/07/14 16:10:27 409 [INFO,parse_data:54] parsing data from ./Greed_batch/Greed_batch3.txt...
20/07/14 16:10:33 620 [INFO,parse_data:105] parse finish. got 9970 datas
20/07/14 16:10:33 620 [INFO,parse_data:54] parsing data from ./Greed_batch/Greed_batch1.txt...
20/07/14 16:10:34 407 [INFO,parse_data:105] parse finish. got 1255 datas
20/07/14 16:10:34 408 [INFO,train_last:129] NN_Last(
  (fc1): Linear(in_features=324, out_features=128, bias=True)
  (fc2): Linear(in_features=128, out_features=128, bias=True)
  (fc3): Linear(in_features=128, out_features=64, bias=True)
  (fc4): Linear(in_features=64, out_features=64, bias=True)
  (fc5): Linear(in_features=64, out_features=52, bias=True)
) 73908
20/07/14 16:10:34 541 [INFO,train_last:134] random init: 3.974639 0.285192
20/07/14 16:10:34 541 [INFO,train_last:135] epoch num: train_loss test_loss test_correct_ratio
20/07/14 16:10:34 992 [INFO,train_last:155]   0: 3.871005 3.713939 0.542048
20/07/14 16:10:52 594 [INFO,train_last:155]  50: 0.424856 0.395758 0.871115
20/07/14 16:11:10 041 [INFO,train_last:155] 100: 0.060366 0.255583 0.969835
…
20/07/14 16:13:17 987 [INFO,train_last:155] 450: 0.006760 0.442655 0.980804
20/07/14 16:14:02 797 [INFO,parse_data:54] parsing data from ./Greed_batch/Greed_batch2.txt...
20/07/14 16:14:08 958 [INFO,parse_data:105] parse finish. got 9949 datas
20/07/14 16:14:08 959 [INFO,parse_data:54] parsing data from ./Greed_batch/Greed_batch3.txt...
20/07/14 16:14:15 106 [INFO,parse_data:105] parse finish. got 9970 datas
20/07/14 16:14:15 106 [INFO,parse_data:54] parsing data from ./Greed_batch/Greed_batch1.txt...
20/07/14 16:14:15 878 [INFO,parse_data:105] parse finish. got 1255 datas
20/07/14 16:14:15 880 [INFO,train_last:129] NN_Last(
  (fc1): Linear(in_features=324, out_features=192, bias=True)
  (fc2): Linear(in_features=192, out_features=128, bias=True)
  (fc3): Linear(in_features=128, out_features=64, bias=True)
  (fc4): Linear(in_features=64, out_features=64, bias=True)
  (fc5): Linear(in_features=64, out_features=52, bias=True)
) 102900
20/07/14 16:14:16 023 [INFO,train_last:134] random init: 3.922882 0.300731
20/07/14 16:14:16 024 [INFO,train_last:135] epoch num: train_loss test_loss test_correct_ratio
20/07/14 16:14:16 518 [INFO,train_last:155]   0: 3.778242 3.450075 0.549360
20/07/14 16:14:36 059 [INFO,train_last:155]  50: 0.252212 0.306237 0.914077
20/07/14 16:14:55 255 [INFO,train_last:155] 100: 0.019746 0.301280 0.983547
…
20/07/14 16:21:50 708 [INFO,train:178] 550: 0.004874 0.367929 0.982633
20/07/14 16:22:09 288 [INFO,parse_data:77] parsing data from ./Greed_batch/Greed_batch2.txt...
20/07/14 16:22:15 466 [INFO,parse_data:128] parse finish. got 9949 datas
20/07/14 16:22:15 466 [INFO,parse_data:77] parsing data from ./Greed_batch/Greed_batch3.txt...
20/07/14 16:22:21 930 [INFO,parse_data:128] parse finish. got 9970 datas
20/07/14 16:22:21 930 [INFO,parse_data:77] parsing data from ./Greed_batch/Greed_batch1.txt...
20/07/14 16:22:22 701 [INFO,parse_data:128] parse finish. got 1255 datas
20/07/14 16:22:22 704 [INFO,train:152] NN_Last(
  (fc1): Linear(in_features=324, out_features=256, bias=True)
  (fc2): Linear(in_features=256, out_features=128, bias=True)
  (fc3): Linear(in_features=128, out_features=64, bias=True)
  (fc4): Linear(in_features=64, out_features=64, bias=True)
  (fc5): Linear(in_features=64, out_features=52, bias=True)
) 131892
20/07/14 16:22:22 857 [INFO,train:157] random init: 3.930558 0.363803
20/07/14 16:22:22 857 [INFO,train:158] epoch num: train_loss test_loss test_correct_ratio
20/07/14 16:22:23 410 [INFO,train:178]   0: 3.795212 3.526012 0.496344
20/07/14 16:22:45 735 [INFO,train:178]  50: 0.278686 0.287678 0.924132
20/07/14 16:23:06 213 [INFO,train:178] 100: 0.084069 0.295819 0.974406
…
 [tensor([0., 0., 0., 1.]), tensor([0., 0., 0., 0.]), tensor([1., 0., 0., 0.]), tensor([0., 0., 0., 1.])]
20/07/14 16:38:45 764 [INFO,parse_data:77] parsing data from ./Greed_batch/Greed_batch2.txt...
20/07/14 16:38:52 334 [INFO,parse_data:135] parse finish. got 9949 datas
20/07/14 16:38:52 334 [INFO,parse_data:77] parsing data from ./Greed_batch/Greed_batch3.txt...
20/07/14 16:38:58 803 [INFO,parse_data:135] parse finish. got 9970 datas
20/07/14 16:38:58 803 [INFO,parse_data:77] parsing data from ./Greed_batch/Greed_batch1.txt...
20/07/14 16:38:59 606 [INFO,parse_data:135] parse finish. got 1255 datas
20/07/14 16:38:59 609 [INFO,train:159] NN_Last(
  (fc1): Linear(in_features=324, out_features=256, bias=True)
  (fc2): Linear(in_features=256, out_features=128, bias=True)
  (fc3): Linear(in_features=128, out_features=64, bias=True)
  (fc4): Linear(in_features=64, out_features=64, bias=True)
  (fc5): Linear(in_features=64, out_features=52, bias=True)
) 131892
20/07/14 16:40:10 496 [INFO,parse_data:77] parsing data from ./Greed_batch/Greed_batch2.txt...
20/07/14 16:40:16 799 [INFO,parse_data:135] parse finish. got 9949 datas
20/07/14 16:40:16 799 [INFO,parse_data:77] parsing data from ./Greed_batch/Greed_batch3.txt...
20/07/14 16:40:23 036 [INFO,parse_data:135] parse finish. got 9970 datas
20/07/14 16:40:23 037 [INFO,parse_data:77] parsing data from ./Greed_batch/Greed_batch1.txt...
20/07/14 16:40:23 820 [INFO,parse_data:135] parse finish. got 1255 datas
20/07/14 16:40:23 822 [INFO,train:159] NN_Last(
  (fc1): Linear(in_features=340, out_features=256, bias=True)
  (fc2): Linear(in_features=256, out_features=128, bias=True)
  (fc3): Linear(in_features=128, out_features=64, bias=True)
  (fc4): Linear(in_features=64, out_features=64, bias=True)
  (fc5): Linear(in_features=64, out_features=52, bias=True)
) 135988
20/07/14 16:40:23 975 [INFO,train:164] random init: 3.958065 0.257770
20/07/14 16:40:23 976 [INFO,train:165] epoch num: train_loss test_loss test_correct_ratio
20/07/14 16:40:24 535 [INFO,train:185]   0: 3.833159 3.623502 0.505484
20/07/14 16:40:47 903 [INFO,train:185]  50: 0.352925 0.350188 0.894881
20/07/14 16:41:10 983 [INFO,train:185] 100: 0.035429 0.328262 0.978062
…
20/07/14 16:52:24 985 [INFO,parse_data:135] parse finish. got 1233 datas
20/07/14 16:52:51 764 [INFO,parse_data:77] parsing data from ./Greed_batch/Greed_batch2.txt...
20/07/14 16:52:57 894 [INFO,parse_data:135] parse finish. got 10106 datas
20/07/14 16:52:57 895 [INFO,parse_data:77] parsing data from ./Greed_batch/Greed_batch3.txt...
20/07/14 16:53:04 116 [INFO,parse_data:135] parse finish. got 10035 datas
20/07/14 16:53:04 117 [INFO,parse_data:77] parsing data from ./Greed_batch/Greed_batch1.txt...
20/07/14 16:53:04 894 [INFO,parse_data:135] parse finish. got 1233 datas
20/07/14 16:53:04 896 [INFO,train:159] NN_Third(
  (fc1): Linear(in_features=288, out_features=256, bias=True)
  (fc2): Linear(in_features=256, out_features=128, bias=True)
  (fc3): Linear(in_features=128, out_features=64, bias=True)
  (fc4): Linear(in_features=64, out_features=64, bias=True)
  (fc5): Linear(in_features=64, out_features=52, bias=True)
) 122676
20/07/14 16:53:05 046 [INFO,train:164] random init: 3.964376 0.263923
20/07/14 16:53:05 047 [INFO,train:165] epoch num: train_loss test_loss test_correct_ratio
20/07/14 16:53:05 655 [INFO,train:185]   0: 3.828884 3.557503 0.450363
20/07/14 16:53:24 023 [INFO,train:185]  50: 0.507196 0.699835 0.757869
20/07/14 16:53:42 325 [INFO,train:185] 100: 0.104567 1.210574 0.861985
…
20/07/14 16:59:42 256 [INFO,train:185] 950: 0.020477 2.196603 0.874092
20/07/14 17:01:34 680 [INFO,parse_data:79] parsing data from ./Greed_batch/Greed_batch2.txt...
20/07/14 17:01:40 883 [INFO,parse_data:137] parse finish. got 10106 datas
20/07/14 17:01:40 883 [INFO,parse_data:79] parsing data from ./Greed_batch/Greed_batch3.txt...
20/07/14 17:01:47 107 [INFO,parse_data:137] parse finish. got 10035 datas
20/07/14 17:01:47 108 [INFO,parse_data:79] parsing data from ./Greed_batch/Greed_batch1.txt...
20/07/14 17:01:47 892 [INFO,parse_data:137] parse finish. got 1233 datas
20/07/14 17:01:47 895 [INFO,train:161] NN_Third(
  (fc1): Linear(in_features=288, out_features=256, bias=True)
  (fc2): Linear(in_features=256, out_features=128, bias=True)
  (fc3): Linear(in_features=128, out_features=64, bias=True)
  (fc6): Linear(in_features=64, out_features=64, bias=True)
  (fc4): Linear(in_features=64, out_features=64, bias=True)
  (fc5): Linear(in_features=64, out_features=52, bias=True)
) 126836
20/07/14 17:01:48 053 [INFO,train:166] random init: 3.937437 0.324455
20/07/14 17:01:48 054 [INFO,train:167] epoch num: train_loss test_loss test_correct_ratio
20/07/14 17:01:48 592 [INFO,train:187]   0: 3.776368 3.440017 0.443099
20/07/14 17:02:09 451 [INFO,train:187]  50: 0.404748 0.692225 0.791768
20/07/14 17:02:31 033 [INFO,train:187] 100: 0.144932 1.474462 0.869249
…
20/07/14 17:06:53 413 [INFO,train:187] 600: 0.021057 2.983818 0.898305
20/07/14 17:07:54 877 [INFO,parse_data:79] parsing data from ./Greed_batch/Greed_batch2.txt...
20/07/14 17:08:01 055 [INFO,parse_data:137] parse finish. got 10106 datas
20/07/14 17:08:01 056 [INFO,parse_data:79] parsing data from ./Greed_batch/Greed_batch3.txt...
20/07/14 17:08:07 260 [INFO,parse_data:137] parse finish. got 10035 datas
20/07/14 17:08:07 260 [INFO,parse_data:79] parsing data from ./Greed_batch/Greed_batch1.txt...
20/07/14 17:08:08 041 [INFO,parse_data:137] parse finish. got 1233 datas
20/07/14 17:08:08 043 [INFO,train:161] NN_Third(
  (fc1): Linear(in_features=288, out_features=256, bias=True)
  (fc2): Linear(in_features=256, out_features=128, bias=True)
  (fc6): Linear(in_features=128, out_features=128, bias=True)
  (fc3): Linear(in_features=128, out_features=64, bias=True)
  (fc4): Linear(in_features=64, out_features=64, bias=True)
  (fc5): Linear(in_features=64, out_features=52, bias=True)
) 139188
20/07/14 17:08:08 205 [INFO,train:166] random init: 3.944275 0.278450
20/07/14 17:08:08 205 [INFO,train:167] epoch num: train_loss test_loss test_correct_ratio
20/07/14 17:08:08 793 [INFO,train:187]   0: 3.838193 3.673817 0.460048
20/07/14 17:08:33 402 [INFO,train:187]  50: 0.388727 0.774419 0.801453
20/07/14 17:08:58 255 [INFO,train:187] 100: 0.122022 1.298380 0.864407
…
20/07/14 17:13:49 375 [INFO,train:187] 600: 0.011506 2.793123 0.891041
20/07/14 17:15:29 584 [INFO,parse_data:81] parsing data from ./Greed_batch/Greed_batch2.txt...
20/07/14 17:15:35 723 [INFO,parse_data:139] parse finish. got 10106 datas
20/07/14 17:15:35 723 [INFO,parse_data:81] parsing data from ./Greed_batch/Greed_batch3.txt...
20/07/14 17:15:41 858 [INFO,parse_data:139] parse finish. got 10035 datas
20/07/14 17:15:41 858 [INFO,parse_data:81] parsing data from ./Greed_batch/Greed_batch1.txt...
20/07/14 17:15:42 625 [INFO,parse_data:139] parse finish. got 1233 datas
20/07/14 17:15:42 627 [INFO,train:163] NN_Third(
  (fc1): Linear(in_features=288, out_features=256, bias=True)
  (fc2): Linear(in_features=256, out_features=128, bias=True)
  (fc6): Linear(in_features=128, out_features=128, bias=True)
  (fc3): Linear(in_features=128, out_features=64, bias=True)
  (fc7): Linear(in_features=64, out_features=64, bias=True)
  (fc4): Linear(in_features=64, out_features=64, bias=True)
  (fc5): Linear(in_features=64, out_features=52, bias=True)
) 143348
20/07/14 17:15:42 792 [INFO,train:168] random init: 3.939580 0.319613
20/07/14 17:15:42 793 [INFO,train:169] epoch num: train_loss test_loss test_correct_ratio
20/07/14 17:15:43 416 [INFO,train:189]   0: 3.823568 3.642545 0.474576
20/07/14 17:16:08 953 [INFO,train:189]  50: 0.495240 0.789486 0.726392
20/07/14 17:16:30 458 [INFO,train:189] 100: 0.174517 1.123135 0.840194
…
20/07/14 18:01:39 165 [INFO,train:189] 4000: 0.014906 5.882640 0.881356
20/07/14 18:03:12 557 [INFO,parse_data:81] parsing data from ./Greed_batch/Greed_batch2.txt...
20/07/14 18:03:18 705 [INFO,parse_data:139] parse finish. got 10106 datas
20/07/14 18:03:18 706 [INFO,parse_data:81] parsing data from ./Greed_batch/Greed_batch3.txt...
20/07/14 18:03:24 875 [INFO,parse_data:139] parse finish. got 10035 datas
20/07/14 18:03:24 875 [INFO,parse_data:81] parsing data from ./Greed_batch/Greed_batch1.txt...
20/07/14 18:03:25 650 [INFO,parse_data:139] parse finish. got 1233 datas
20/07/14 18:03:25 652 [INFO,train:163] NN_Third(
  (fc1): Linear(in_features=288, out_features=256, bias=True)
  (fc2): Linear(in_features=256, out_features=128, bias=True)
  (fc3): Linear(in_features=128, out_features=64, bias=True)
  (fc6): Linear(in_features=64, out_features=64, bias=True)
  (fc7): Linear(in_features=64, out_features=64, bias=True)
  (fc4): Linear(in_features=64, out_features=64, bias=True)
  (fc5): Linear(in_features=64, out_features=52, bias=True)
) 130996
20/07/14 18:03:25 812 [INFO,train:168] random init: 3.970786 0.230024
20/07/14 18:03:25 813 [INFO,train:169] epoch num: train_loss test_loss test_correct_ratio
20/07/14 18:03:26 476 [INFO,train:189]   0: 3.844722 3.658280 0.445521
20/07/14 18:03:50 741 [INFO,train:189]  50: 0.503762 0.806204 0.733656
20/07/14 18:04:14 616 [INFO,train:189] 100: 0.322470 0.891765 0.818402
…
20/07/14 18:51:50 159 [INFO,parse_data:143] parse finish. got 10106 datas
20/07/14 18:51:50 159 [INFO,parse_data:85] parsing data from ./Greed_batch/Greed_batch3.txt...
20/07/14 18:51:56 412 [INFO,parse_data:143] parse finish. got 10035 datas
20/07/14 18:51:56 412 [INFO,parse_data:85] parsing data from ./Greed_batch/Greed_batch4.txt...
20/07/14 18:52:02 940 [INFO,parse_data:143] parse finish. got 10122 datas
20/07/14 18:52:02 941 [INFO,parse_data:85] parsing data from ./Greed_batch/Greed_batch1.txt...
20/07/14 18:52:03 729 [INFO,parse_data:143] parse finish. got 1233 datas
20/07/14 18:52:03 732 [INFO,train:167] NN_Third(
  (fc1): Linear(in_features=288, out_features=256, bias=True)
  (fc2): Linear(in_features=256, out_features=128, bias=True)
  (fc3): Linear(in_features=128, out_features=64, bias=True)
  (fc6): Linear(in_features=64, out_features=64, bias=True)
  (fc7): Linear(in_features=64, out_features=64, bias=True)
  (fc8): Linear(in_features=64, out_features=64, bias=True)
  (fc4): Linear(in_features=64, out_features=64, bias=True)
  (fc5): Linear(in_features=64, out_features=52, bias=True)
) 135156
20/07/14 18:52:03 994 [INFO,train:172] random init: 3.915930 0.305514
20/07/14 18:52:03 994 [INFO,train:173] epoch num: train_loss test_loss test_correct_ratio
20/07/14 18:52:05 014 [INFO,train:193]   0: 3.587350 2.234037 0.457526
20/07/14 18:52:40 044 [INFO,train:193]  50: 0.392925 0.388898 0.861401
20/07/14 18:53:18 349 [INFO,train:193] 100: 0.146958 0.247576 0.935917
…
