…
20/07/15 22:00:56 929 [INFO,parse_data:226] parse finish. got 9949 datas
20/07/15 22:00:56 930 [INFO,parse_data:168] parsing data from ./Greed_batch/Greed_batch3.txt...
20/07/15 22:01:02 657 [INFO,parse_data:226] parse finish. got 9970 datas
20/07/15 22:01:02 658 [INFO,parse_data:168] parsing data from ./Greed_batch/Greed_batch4.txt...
20/07/15 22:01:07 965 [INFO,parse_data:226] parse finish. got 9952 datas
20/07/15 22:01:07 966 [INFO,parse_data:168] parsing data from ./Greed_batch/Greed_batch1.txt...
20/07/15 22:01:08 646 [INFO,parse_data:226] parse finish. got 1255 datas
20/07/15 22:01:08 648 [INFO,train:252] NN_Last(
  (fc1): Linear(in_features=340, out_features=256, bias=True)
  (fc2): Linear(in_features=256, out_features=128, bias=True)
  (fc3): Linear(in_features=128, out_features=64, bias=True)
  (fc4): Linear(in_features=64, out_features=64, bias=True)
  (fc5): Linear(in_features=64, out_features=52, bias=True)
) 135988
20/07/15 22:01:08 888 [INFO,train:257] random init: 3.959430 0.221670
20/07/15 22:01:08 889 [INFO,train:258] epoch num: train_loss test_loss test_correct_ratio
20/07/15 22:01:09 554 [INFO,train:279]   0: 3.293898 1.019839 0.635857
20/07/15 22:01:39 907 [INFO,train:279]  50: 0.281014 0.162226 0.943426
20/07/15 22:02:12 432 [INFO,train:279] 100: 0.030322 0.017534 0.996016
…
20/07/16 00:07:22 340 [INFO,test_accu:301] NN_First [(184, 256), (256, 128), (128, 64), (64, 64), (64, 64), (64, 64), (64, 64), (64, 64), (64, 64), (64, 64), (64, 52)] 121012
20/07/16 00:07:22 343 [INFO,parse_data:177] parsing data from ./Greed_batch/Greed_batch1.txt...
20/07/16 00:07:22 907 [INFO,parse_data:235] parse finish. got 1536 datas
20/07/16 00:07:22 914 [INFO,test_accu:309] data size: torch.Size([1536, 184])
20/07/16 00:07:22 925 [INFO,test_accu:318] testloader indeed stoped
20/07/16 00:07:22 925 [INFO,test_accu:319] 17.198587 0.477214
20/07/16 00:07:22 929 [INFO,test_accu:301] NN_Second(
  (fc1): Linear(in_features=236, out_features=256, bias=True)
  (fc2): Linear(in_features=256, out_features=128, bias=True)
  (fc3): Linear(in_features=128, out_features=64, bias=True)
  (fc4): Linear(in_features=64, out_features=64, bias=True)
  (fc5): Linear(in_features=64, out_features=64, bias=True)
  (fc6): Linear(in_features=64, out_features=64, bias=True)
  (fc7): Linear(in_features=64, out_features=64, bias=True)
  (fc8): Linear(in_features=64, out_features=64, bias=True)
  (fc9): Linear(in_features=64, out_features=52, bias=True)
)
20/07/16 00:07:22 931 [INFO,parse_data:177] parsing data from ./Greed_batch/Greed_batch1.txt...
20/07/16 00:07:23 591 [INFO,parse_data:235] parse finish. got 1228 datas
20/07/16 00:07:23 595 [INFO,test_accu:309] data size: torch.Size([1228, 236])
20/07/16 00:07:23 600 [INFO,test_accu:318] testloader indeed stoped
20/07/16 00:07:23 601 [INFO,test_accu:319] 9.488150 0.715798
…
